…
        "plt.figure(figsize=(20, 20)); plt.axis(\"off\"); plt.title(\"Sample Training Images\")\n",
        "plt.imshow(np.transpose(utils.make_grid(sample_batch[0], padding=1, normalize=True),(1,2,0)));"
      ]
    },
    {
      "cell_type": "code",
      "execution_count": 16,
      "metadata": {
        "colab": {
          "base_uri": "https://localhost:8080/"
        },
        "id": "nPQsyeOTH0ny",
        "outputId": "6d7b98e1-f273-4c7a-c366-ed11c318a291"
      },
      "outputs": [
        {
          "output_type": "stream",
          "name": "stdout",
          "text": [
            "BoneAgePredictor(\n",
            "  (conv1): Conv2d(1, 16, kernel_size=(3, 3), stride=(1, 1))\n",
            "  (batch1): BatchNorm2d(16, eps=1e-05, momentum=0.1, affine=True, track_running_stats=True)\n",
            "  (conv2): Conv2d(16, 32, kernel_size=(3, 3), stride=(1, 1))\n",
            "  (batch2): BatchNorm2d(32, eps=1e-05, momentum=0.1, affine=True, track_running_stats=True)\n",
            "  (conv3): Conv2d(32, 64, kernel_size=(3, 3), stride=(1, 1))\n",
            "  (batch3): BatchNorm2d(64, eps=1e-05, momentum=0.1, affine=True, track_running_stats=True)\n",
            "  (conv4): Conv2d(64, 128, kernel_size=(3, 3), stride=(1, 1))\n",
            "  (batch4): BatchNorm2d(128, eps=1e-05, momentum=0.1, affine=True, track_running_stats=True)\n",
            "  (conv5): Conv2d(128, 128, kernel_size=(3, 3), stride=(1, 1))\n",
            "  (batch5): BatchNorm2d(128, eps=1e-05, momentum=0.1, affine=True, track_running_stats=True)\n",
            "  (fc1): Linear(in_features=4609, out_features=68, bias=True)\n",
            "  (fc2): Linear(in_features=69, out_features=1, bias=True)\n",
            ")\n"
          ]
        }
      ],
      "source": [
        "model = BoneAgePredictor().double().to(device)\n",
        "print(model)\n",
        "optimizer = optim.Adam(model.parameters())\n",
        "scheduler = ReduceLROnPlateau(optimizer, factor=0.1, patience=2, min_lr=0.0001, verbose=True)"
      ]
    },
    {
      "cell_type": "code",
…
